…
e inference function.</p>","tags":["huggingface","pytorch","ner"]},{"location":"blog/2023/08/10/named-entity-recognition-with-torch.html#loading-model","title":"Loading Model","text":"<p>If we want to load the fine-tuned <code>model</code>, we can use <code>.from_pretrained</code> and specify the folder where ther model is located,  the <code>tokenizer</code> can be loaded in a similar way</p> <pre><code>new_model = NERClassifier.from_pretrained('./my_model_dir')\nnew_model\n</code></pre> <pre><code>NERClassifier(\n  (bert): BertModel(\n    (embeddings): BertEmbeddings(\n      (word_embeddings): Embedding(120138, 768, padding_idx=0)\n      (position_embeddings): Embedding(512, 768)\n      (token_type_embeddings): Embedding(2, 768)\n      (LayerNorm): LayerNorm((768,), eps=1e-12, elementwise_affine=True)\n      (dropout): Dropout(p=0.1, inplace=False)\n    )\n    (encoder): BertEncoder(\n      (layer): ModuleList(\n        (0-11): 12 x BertLayer(\n          (attention): BertAttention(\n            (self): BertSelfAttention(\n              (query): Linear(in_features=768, out_features=768, bias=True)\n              (key): Linear(in_features=768, out_features=768, bias=True)\n              (value): Linear(in_features=768, out_features=768, bias=True)\n              (dropout): Dropout(p=0.1, inplace=False)\n            )\n            (output): BertSelfOutput(\n              (dense): Linear(in_features=768, out_features=768, bias=True)\n              (LayerNorm): LayerNorm((768,), eps=1e-12, elementwise_affine=True)\n              (dropout): Dropout(p=0.1, inplace=False)\n            )\n          )\n          (intermediate): BertIntermediate(\n            (dense): Linear(in_features=768, out_features=3072, bias=True)\n            (intermediate_act_fn): GELUActivation()\n          )\n          (output): BertOutput(\n            (dense): Linear(in_features=3072, out_features=768, bias=True)\n            (LayerNorm): LayerNorm((768,), eps=1e-12, elementwise_affine=True)\n            (dropout): Dropout(p=0.1, inplace=False)\n          )\n        )\n      )\n    )\n    (pooler): BertPooler(\n      (dense): Linear(in_features=768, out_features=768, bias=True)\n      (activation): Tanh()\n    )\n  )\n  (seq): Sequential(\n    (0): Linear(in_features=768, out_features=256, bias=True)\n    (1): ReLU()\n    (2): Linear(in_features=256, out_features=63, bias=True)\n  )\n)\n</code></pre>","tags":["huggingface","pytorch","ner"]},{"location":"blog/2023/08/10/named-entity-recognition-with-torch.html#finding-ner-tags-in-a-document","title":"Finding NER tags in a document","text":"<p>We can use our model using something similar to the code below &amp; utilise the same <code>tokenizer</code>, the <code>parser</code> &am
…
_size//2))\n    MLP_modules.append(nn.ReLU())\nself.MLP_layers = nn.Sequential(*MLP_modules)\n</code></pre> Output layer <p>Finally we need to define the output linear layer. The </p> <pre><code>self.predict_layer = nn.Linear(predict_size, 1)\n</code></pre>","tags":["recsys"]},{"location":"blog/2024/10/14/neural-collaborative-filtering.html#initialised-layers","title":"Initialised layers","text":"<p>Having defined the layers of the neural network. Lets see how the layers will look after they have been initialised using a <code>factor_num</code> of 16.</p> MLPGMFNeuMF <pre><code>(embed_user_MLP): Embedding(6040, 64)\n(embed_item_MLP): Embedding(3706, 64)\n(MLP_layers): Sequential(\n    (0): Dropout(p=0.0, inplace=False)\n    (1): Linear(in_features=128, out_features=64, bias=True)\n    (2): ReLU()\n    (3): Dropout(p=0.0, inplace=False)\n    (4): Linear(in_features=64, out_features=32, bias=True)\n    (5): ReLU()\n    (6): Dropout(p=0.0, inplace=False)\n    (7): Linear(in_features=32, out_features=16, bias=True)\n    (8): ReLU()\n)\n(predict_layer): Linear(in_features=16, out_features=1, bias=True)\n</code></pre> <pre><code>NCF(\n(embed_user_GMF): Embedding(6040, 16)\n(embed_item_GMF): Embedding(3706, 16)\n(predict_layer): Linear(in_features=16, out_features=1, bias=True)\n)\n</code></pre> <pre><code>NCF(\n(embed_user_GMF): Embedding(6040, 16)\n(embed_item_GMF): Embedding(3706, 16)\n(embed_user_MLP): Embedding(6040, 64)\n(embed_item_MLP): Embedding(3706, 64)\n(MLP_layers): Sequential(\n    (0): Dropout(p=0.0, inplace=False)\n    (1): Linear(in_features=128, out_features=64, bias=True)\n    (2): ReLU()\n    (3): Dropout(p=0.0, inplace=False)\n    (4): Linear(in_features=64, out_features=32, bias=True)\n    (5): ReLU()\n    (6): Dropout(p=0.0, inplace=False)\n    (7): Linear(in_features=32, out_features=16, bias=True)\n    (8): ReLU()\n)\n(predict_layer): Linear(in_features=16, out_features=1, bias=True)\n)\n</code></pre>","tags":["recsys"]},{"location":"blog/2024/10/14/neural-collaborative-filtering.html#forward-method","title":"Forward method","text":"<p>Now lets define what will be part of the <code>forward pass operation</code></p> <ul> <li>The forward pass operation contains a logical selection condition based on the model that is chosen</li> <li>The
…
