…
r a single sentence, I'll be using a simple inference function.</p>"},{"location":"mldsai-info/2023-08-10-huggingface_NER/#-loading-model","title":"\u276f\u276f Loading Model","text":"<p>If we want to load the fine-tuned <code>model</code>, we can use <code>.from_pretrained</code> and specify the folder where ther model is located,  the <code>tokenizer</code> can be loaded in a similar way</p> <pre><code>new_model = NERClassifier.from_pretrained('./my_model_dir')\nnew_model\n</code></pre> <pre><code>NERClassifier(\n  (bert): BertModel(\n    (embeddings): BertEmbeddings(\n      (word_embeddings): Embedding(120138, 768, padding_idx=0)\n      (position_embeddings): Embedding(512, 768)\n      (token_type_embeddings): Embedding(2, 768)\n      (LayerNorm): LayerNorm((768,), eps=1e-12, elementwise_affine=True)\n      (dropout): Dropout(p=0.1, inplace=False)\n    )\n    (encoder): BertEncoder(\n      (layer): ModuleList(\n        (0-11): 12 x BertLayer(\n          (attention): BertAttention(\n            (self): BertSelfAttention(\n              (query): Linear(in_features=768, out_features=768, bias=True)\n              (key): Linear(in_features=768, out_features=768, bias=True)\n              (value): Linear(in_features=768, out_features=768, bias=True)\n              (dropout): Dropout(p=0.1, inplace=False)\n            )\n            (output): BertSelfOutput(\n              (dense): Linear(in_features=768, out_features=768, bias=True)\n              (LayerNorm): LayerNorm((768,), eps=1e-12, elementwise_affine=True)\n              (dropout): Dropout(p=0.1, inplace=False)\n            )\n          )\n          (intermediate): BertIntermediate(\n            (dense): Linear(in_features=768, out_features=3072, bias=True)\n            (intermediate_act_fn): GELUActivation()\n          )\n          (output): BertOutput(\n            (dense): Linear(in_features=3072, out_features=768, bias=True)\n            (LayerNorm): LayerNorm((768,), eps=1e-12, elementwise_affine=True)\n            (dropout): Dropout(p=0.1, inplace=False)\n          )\n        )\n      )\n    )\n    (pooler): BertPooler(\n      (dense): Linear(in_features=768, out_features=768, bias=True)\n      (activation): Tanh()\n    )\n  )\n  (seq): Sequential(\n    (0): Linear(in_features=768, out_features=256, bias=True)\n    (1): ReLU()\n    (2): Linear(in_features=256, out_features=63, bias=True)\n  )\n)\n</code></pre>"},{"location":"mldsai-info/2023-08-10-huggingface_NER/#-finding-ner-tags-in-a-document","title":"\u276f\u276f Finding NER tags in a document","text":"<p>We can use our model using something similar to the code below &amp; utilise the same <code>tokenizer</code>, the <code>parser</code> &amp; saved <code>model</code></p> <pre><code
…
